{"class_name": "Model", "keras_version": "2.1.5", "config": {"layers": [{"class_name": "InputLayer", "config": {"dtype": "float32", "batch_input_shape": [null, 32, 32, 3], "name": "input_1", "sparse": false}, "inbound_nodes": [], "name": "input_1"}, {"class_name": "Conv2D", "config": {"kernel_constraint": null, "kernel_initializer": {"class_name": "VarianceScaling", "config": {"distribution": "uniform", "scale": 1.0, "seed": null, "mode": "fan_avg"}}, "name": "conv2d_1", "bias_regularizer": null, "bias_constraint": null, "activation": "linear", "trainable": true, "data_format": "channels_last", "padding": "same", "strides": [2, 2], "dilation_rate": [1, 1], "kernel_regularizer": null, "filters": 32, "bias_initializer": {"class_name": "Zeros", "config": {}}, "use_bias": true, "activity_regularizer": null, "kernel_size": [3, 3]}, "inbound_nodes": [[["input_1", 0, 0, {}]]], "name": "conv2d_1"}, {"class_name": "BatchNormalization", "config": {"beta_constraint": null, "gamma_initializer": {"class_name": "Ones", "config": {}}, "moving_mean_initializer": {"class_name": "Zeros", "config": {}}, "name": "batch_normalization_1", "epsilon": 0.001, "trainable": true, "moving_variance_initializer": {"class_name": "Ones", "config": {}}, "beta_initializer": {"class_name": "Zeros", "config": {}}, "scale": true, "axis": -1, "gamma_constraint": null, "gamma_regularizer": null, "beta_regularizer": null, "momentum": 0.99, "center": true}, "inbound_nodes": [[["conv2d_1", 0, 0, {}]]], "name": "batch_normalization_1"}, {"class_name": "Activation", "config": {"activation": "relu6", "trainable": true, "name": "activation_1"}, "inbound_nodes": [[["batch_normalization_1", 0, 0, {}]]], "name": "activation_1"}, {"class_name": "Conv2D", "config": {"kernel_constraint": null, "kernel_initializer": {"class_name": "VarianceScaling", "config": {"distribution": "uniform", "scale": 1.0, "seed": null, "mode": "fan_avg"}}, "name": "conv2d_2", "bias_regularizer": null, "bias_constraint": null, "activation": "linear", "trainable": true, "data_format": "channels_last", "padding": "same", "strides": [1, 1], "dilation_rate": [1, 1], "kernel_regularizer": null, "filters": 32, "bias_initializer": {"class_name": "Zeros", "config": {}}, "use_bias": true, "activity_regularizer": null, "kernel_size": [1, 1]}, "inbound_nodes": [[["activation_1", 0, 0, {}]]], "name": "conv2d_2"}, {"class_name": "BatchNormalization", "config": {"beta_constraint": null, "gamma_initializer": {"class_name": "Ones", "config": {}}, "moving_mean_initializer": {"class_name": "Zeros", "config": {}}, "name": "batch_normalization_2", "epsilon": 0.001, "trainable": true, "moving_variance_initializer": {"class_name": "Ones", "config": {}}, "beta_initializer": {"class_name": "Zeros", "config": {}}, "scale": true, "axis": -1, "gamma_constraint": null, "gamma_regularizer": null, "beta_regularizer": null, "momentum": 0.99, "center": true}, "inbound_nodes": [[["conv2d_2", 0, 0, {}]]], "name": "batch_normalization_2"}, {"class_name": "Activation", "config": {"activation": "relu6", "trainable": true, "name": "activation_2"}, "inbound_nodes": [[["batch_normalization_2", 0, 0, {}]]], "name": "activation_2"}, {"class_name": "DepthwiseConv2D", "config": {"use_bias": true, "trainable": true, "name": "depthwise_conv2d_1", "bias_regularizer": null, "bias_constraint": null, "activation": "linear", "depth_multiplier": 1, "depthwise_constraint": null, "data_format": "channels_last", "padding": "same", "strides": [1, 1], "dilation_rate": [1, 1], "depthwise_initializer": {"class_name": "VarianceScaling", "config": {"distribution": "uniform", "scale": 1.0, "seed": null, "mode": "fan_avg"}}, "bias_initializer": {"class_name": "Zeros", "config": {}}, "depthwise_regularizer": null, "activity_regularizer": null, "kernel_size": [3, 3]}, "inbound_nodes": [[["activation_2", 0, 0, {}]]], "name": "depthwise_conv2d_1"}, {"class_name": "BatchNormalization", "config": {"beta_constraint": null, "gamma_initializer": {"class_name": "Ones", "config": {}}, "moving_mean_initializer": {"class_name": "Zeros", "config": {}}, "name": "batch_normalization_3", "epsilon": 0.001, "trainable": true, "moving_variance_initializer": {"class_name": "Ones", "config": {}}, "beta_initializer": {"class_name": "Zeros", "config": {}}, "scale": true, "axis": -1, "gamma_constraint": null, "gamma_regularizer": null, "beta_regularizer": null, "momentum": 0.99, "center": true}, "inbound_nodes": [[["depthwise_conv2d_1", 0, 0, {}]]], "name": "batch_normalization_3"}, {"class_name": "Activation", "config": {"activation": "relu6", "trainable": true, "name": "activation_3"}, "inbound_nodes": [[["batch_normalization_3", 0, 0, {}]]], "name": "activation_3"}, {"class_name": "Conv2D", "config": {"kernel_constraint": null, "kernel_initializer": {"class_name": "VarianceScaling", "config": {"distribution": "uniform", "scale": 1.0, "seed": null, "mode": "fan_avg"}}, "name": "conv2d_3", "bias_regularizer": null, "bias_constraint": null, "activation": "linear", "trainable": true, "data_format": "channels_last", "padding": "same", "strides": [1, 1], "dilation_rate": [1, 1], "kernel_regularizer": null, "filters": 16, "bias_initializer": {"class_name": "Zeros", "config": {}}, "use_bias": true, "activity_regularizer": null, "kernel_size": [1, 1]}, "inbound_nodes": [[["activation_3", 0, 0, {}]]], "name": "conv2d_3"}, {"class_name": "BatchNormalization", "config": {"beta_constraint": null, "gamma_initializer": {"class_name": "Ones", "config": {}}, "moving_mean_initializer": {"class_name": "Zeros", "config": {}}, "name": "batch_normalization_4", "epsilon": 0.001, "trainable": true, "moving_variance_initializer": {"class_name": "Ones", "config": {}}, "beta_initializer": {"class_name": "Zeros", "config": {}}, "scale": true, "axis": -1, "gamma_constraint": null, "gamma_regularizer": null, "beta_regularizer": null, "momentum": 0.99, "center": true}, "inbound_nodes": [[["conv2d_3", 0, 0, {}]]], "name": "batch_normalization_4"}, {"class_name": "Conv2D", "config": {"kernel_constraint": null, "kernel_initializer": {"class_name": "VarianceScaling", "config": {"distribution": "uniform", "scale": 1.0, "seed": null, "mode": "fan_avg"}}, "name": "conv2d_4", "bias_regularizer": null, "bias_constraint": null, "activation": "linear", "trainable": true, "data_format": "channels_last", "padding": "same", "strides": [1, 1], "dilation_rate": [1, 1], "kernel_regularizer": null, "filters": 96, "bias_initializer": {"class_name": "Zeros", "config": {}}, "use_bias": true, "activity_regularizer": null, "kernel_size": [1, 1]}, "inbound_nodes": [[["batch_normalization_4", 0, 0, {}]]], "name": "conv2d_4"}, {"class_name": "BatchNormalization", "config": {"beta_constraint": null, "gamma_initializer": {"class_name": "Ones", "config": {}}, "moving_mean_initializer": {"class_name": "Zeros", "config": {}}, "name": "batch_normalization_5", "epsilon": 0.001, "trainable": true, "moving_variance_initializer": {"class_name": "Ones", "config": {}}, "beta_initializer": {"class_name": "Zeros", "config": {}}, "scale": true, "axis": -1, "gamma_constraint": null, "gamma_regularizer": null, "beta_regularizer": null, "momentum": 0.99, "center": true}, "inbound_nodes": [[["conv2d_4", 0, 0, {}]]], "name": "batch_normalization_5"}, {"class_name": "Activation", "config": {"activation": "relu6", "trainable": true, "name": "activation_4"}, "inbound_nodes": [[["batch_normalization_5", 0, 0, {}]]], "name": "activation_4"}, {"class_name": "DepthwiseConv2D", "config": {"use_bias": true, "trainable": true, "name": "depthwise_conv2d_2", "bias_regularizer": null, "bias_constraint": null, "activation": "linear", "depth_multiplier": 1, "depthwise_constraint": null, "data_format": "channels_last", "padding": "same", "strides": [2, 2], "dilation_rate": [1, 1], "depthwise_initializer": {"class_name": "VarianceScaling", "config": {"distribution": "uniform", "scale": 1.0, "seed": null, "mode": "fan_avg"}}, "bias_initializer": {"class_name": "Zeros", "config": {}}, "depthwise_regularizer": null, "activity_regularizer": null, "kernel_size": [3, 3]}, "inbound_nodes": [[["activation_4", 0, 0, {}]]], "name": "depthwise_conv2d_2"}, {"class_name": "BatchNormalization", "config": {"beta_constraint": null, "gamma_initializer": {"class_name": "Ones", "config": {}}, "moving_mean_initializer": {"class_name": "Zeros", "config": {}}, "name": "batch_normalization_6", "epsilon": 0.001, "trainable": true, "moving_variance_initializer": {"class_name": "Ones", "config": {}}, "beta_initializer": {"class_name": "Zeros", "config": {}}, "scale": true, "axis": -1, "gamma_constraint": null, "gamma_regularizer": null, "beta_regularizer": null, "momentum": 0.99, "center": true}, "inbound_nodes": [[["depthwise_conv2d_2", 0, 0, {}]]], "name": "batch_normalization_6"}, {"class_name": "Activation", "config": {"activation": "relu6", "trainable": true, "name": "activation_5"}, "inbound_nodes": [[["batch_normalization_6", 0, 0, {}]]], "name": "activation_5"}, {"class_name": "Conv2D", "config": {"kernel_constraint": null, "kernel_initializer": {"class_name": "VarianceScaling", "config": {"distribution": "uniform", "scale": 1.0, "seed": null, "mode": "fan_avg"}}, "name": "conv2d_5", "bias_regularizer": null, "bias_constraint": null, "activation": "linear", "trainable": true, "data_format": "channels_last", "padding": "same", "strides": [1, 1], "dilation_rate": [1, 1], "kernel_regularizer": null, "filters": 24, "bias_initializer": {"class_name": "Zeros", "config": {}}, "use_bias": true, "activity_regularizer": null, "kernel_size": [1, 1]}, "inbound_nodes": [[["activation_5", 0, 0, {}]]], "name": "conv2d_5"}, {"class_name": "BatchNormalization", "config": {"beta_constraint": null, "gamma_initializer": {"class_name": "Ones", "config": {}}, "moving_mean_initializer": {"class_name": "Zeros", "config": {}}, "name": "batch_normalization_7", "epsilon": 0.001, "trainable": true, "moving_variance_initializer": {"class_name": "Ones", "config": {}}, "beta_initializer": {"class_name": "Zeros", "config": {}}, "scale": true, "axis": -1, "gamma_constraint": null, "gamma_regularizer": null, "beta_regularizer": null, "momentum": 0.99, "center": true}, "inbound_nodes": [[["conv2d_5", 0, 0, {}]]], "name": "batch_normalization_7"}, {"class_name": "Conv2D", "config": {"kernel_constraint": null, "kernel_initializer": {"class_name": "VarianceScaling", "config": {"distribution": "uniform", "scale": 1.0, "seed": null, "mode": "fan_avg"}}, "name": "conv2d_6", "bias_regularizer": null, "bias_constraint": null, "activation": "linear", "trainable": true, "data_format": "channels_last", "padding": "same", "strides": [1, 1], "dilation_rate": [1, 1], "kernel_regularizer": null, "filters": 144, "bias_initializer": {"class_name": "Zeros", "config": {}}, "use_bias": true, "activity_regularizer": null, "kernel_size": [1, 1]}, "inbound_nodes": [[["batch_normalization_7", 0, 0, {}]]], "name": "conv2d_6"}, {"class_name": "BatchNormalization", "config": {"beta_constraint": null, "gamma_initializer": {"class_name": "Ones", "config": {}}, "moving_mean_initializer": {"class_name": "Zeros", "config": {}}, "name": "batch_normalization_8", "epsilon": 0.001, "trainable": true, "moving_variance_initializer": {"class_name": "Ones", "config": {}}, "beta_initializer": {"class_name": "Zeros", "config": {}}, "scale": true, "axis": -1, "gamma_constraint": null, "gamma_regularizer": null, "beta_regularizer": null, "momentum": 0.99, "center": true}, "inbound_nodes": [[["conv2d_6", 0, 0, {}]]], "name": "batch_normalization_8"}, {"class_name": "Activation", "config": {"activation": "relu6", "trainable": true, "name": "activation_6"}, "inbound_nodes": [[["batch_normalization_8", 0, 0, {}]]], "name": "activation_6"}, {"class_name": "DepthwiseConv2D", "config": {"use_bias": true, "trainable": true, "name": "depthwise_conv2d_3", "bias_regularizer": null, "bias_constraint": null, "activation": "linear", "depth_multiplier": 1, "depthwise_constraint": null, "data_format": "channels_last", "padding": "same", "strides": [1, 1], "dilation_rate": [1, 1], "depthwise_initializer": {"class_name": "VarianceScaling", "config": {"distribution": "uniform", "scale": 1.0, "seed": null, "mode": "fan_avg"}}, "bias_initializer": {"class_name": "Zeros", "config": {}}, "depthwise_regularizer": null, "activity_regularizer": null, "kernel_size": [3, 3]}, "inbound_nodes": [[["activation_6", 0, 0, {}]]], "name": "depthwise_conv2d_3"}, {"class_name": "BatchNormalization", "config": {"beta_constraint": null, "gamma_initializer": {"class_name": "Ones", "config": {}}, "moving_mean_initializer": {"class_name": "Zeros", "config": {}}, "name": "batch_normalization_9", "epsilon": 0.001, "trainable": true, "moving_variance_initializer": {"class_name": "Ones", "config": {}}, "beta_initializer": {"class_name": "Zeros", "config": {}}, "scale": true, "axis": -1, "gamma_constraint": null, "gamma_regularizer": null, "beta_regularizer": null, "momentum": 0.99, "center": true}, "inbound_nodes": [[["depthwise_conv2d_3", 0, 0, {}]]], "name": "batch_normalization_9"}, {"class_name": "Activation", "config": {"activation": "relu6", "trainable": true, "name": "activation_7"}, "inbound_nodes": [[["batch_normalization_9", 0, 0, {}]]], "name": "activation_7"}, {"class_name": "Conv2D", "config": {"kernel_constraint": null, "kernel_initializer": {"class_name": "VarianceScaling", "config": {"distribution": "uniform", "scale": 1.0, "seed": null, "mode": "fan_avg"}}, "name": "conv2d_7", "bias_regularizer": null, "bias_constraint": null, "activation": "linear", "trainable": true, "data_format": "channels_last", "padding": "same", "strides": [1, 1], "dilation_rate": [1, 1], "kernel_regularizer": null, "filters": 24, "bias_initializer": {"class_name": "Zeros", "config": {}}, "use_bias": true, "activity_regularizer": null, "kernel_size": [1, 1]}, "inbound_nodes": [[["activation_7", 0, 0, {}]]], "name": "conv2d_7"}, {"class_name": "BatchNormalization", "config": {"beta_constraint": null, "gamma_initializer": {"class_name": "Ones", "config": {}}, "moving_mean_initializer": {"class_name": "Zeros", "config": {}}, "name": "batch_normalization_10", "epsilon": 0.001, "trainable": true, "moving_variance_initializer": {"class_name": "Ones", "config": {}}, "beta_initializer": {"class_name": "Zeros", "config": {}}, "scale": true, "axis": -1, "gamma_constraint": null, "gamma_regularizer": null, "beta_regularizer": null, "momentum": 0.99, "center": true}, "inbound_nodes": [[["conv2d_7", 0, 0, {}]]], "name": "batch_normalization_10"}, {"class_name": "Add", "config": {"trainable": true, "name": "add_1"}, "inbound_nodes": [[["batch_normalization_10", 0, 0, {}], ["batch_normalization_7", 0, 0, {}]]], "name": "add_1"}, {"class_name": "Conv2D", "config": {"kernel_constraint": null, "kernel_initializer": {"class_name": "VarianceScaling", "config": {"distribution": "uniform", "scale": 1.0, "seed": null, "mode": "fan_avg"}}, "name": "conv2d_8", "bias_regularizer": null, "bias_constraint": null, "activation": "linear", "trainable": true, "data_format": "channels_last", "padding": "same", "strides": [1, 1], "dilation_rate": [1, 1], "kernel_regularizer": null, "filters": 144, "bias_initializer": {"class_name": "Zeros", "config": {}}, "use_bias": true, "activity_regularizer": null, "kernel_size": [1, 1]}, "inbound_nodes": [[["add_1", 0, 0, {}]]], "name": "conv2d_8"}, {"class_name": "BatchNormalization", "config": {"beta_constraint": null, "gamma_initializer": {"class_name": "Ones", "config": {}}, "moving_mean_initializer": {"class_name": "Zeros", "config": {}}, "name": "batch_normalization_11", "epsilon": 0.001, "trainable": true, "moving_variance_initializer": {"class_name": "Ones", "config": {}}, "beta_initializer": {"class_name": "Zeros", "config": {}}, "scale": true, "axis": -1, "gamma_constraint": null, "gamma_regularizer": null, "beta_regularizer": null, "momentum": 0.99, "center": true}, "inbound_nodes": [[["conv2d_8", 0, 0, {}]]], "name": "batch_normalization_11"}, {"class_name": "Activation", "config": {"activation": "relu6", "trainable": true, "name": "activation_8"}, "inbound_nodes": [[["batch_normalization_11", 0, 0, {}]]], "name": "activation_8"}, {"class_name": "DepthwiseConv2D", "config": {"use_bias": true, "trainable": true, "name": "depthwise_conv2d_4", "bias_regularizer": null, "bias_constraint": null, "activation": "linear", "depth_multiplier": 1, "depthwise_constraint": null, "data_format": "channels_last", "padding": "same", "strides": [2, 2], "dilation_rate": [1, 1], "depthwise_initializer": {"class_name": "VarianceScaling", "config": {"distribution": "uniform", "scale": 1.0, "seed": null, "mode": "fan_avg"}}, "bias_initializer": {"class_name": "Zeros", "config": {}}, "depthwise_regularizer": null, "activity_regularizer": null, "kernel_size": [3, 3]}, "inbound_nodes": [[["activation_8", 0, 0, {}]]], "name": "depthwise_conv2d_4"}, {"class_name": "BatchNormalization", "config": {"beta_constraint": null, "gamma_initializer": {"class_name": "Ones", "config": {}}, "moving_mean_initializer": {"class_name": "Zeros", "config": {}}, "name": "batch_normalization_12", "epsilon": 0.001, "trainable": true, "moving_variance_initializer": {"class_name": "Ones", "config": {}}, "beta_initializer": {"class_name": "Zeros", "config": {}}, "scale": true, "axis": -1, "gamma_constraint": null, "gamma_regularizer": null, "beta_regularizer": null, "momentum": 0.99, "center": true}, "inbound_nodes": [[["depthwise_conv2d_4", 0, 0, {}]]], "name": "batch_normalization_12"}, {"class_name": "Activation", "config": {"activation": "relu6", "trainable": true, "name": "activation_9"}, "inbound_nodes": [[["batch_normalization_12", 0, 0, {}]]], "name": "activation_9"}, {"class_name": "Conv2D", "config": {"kernel_constraint": null, "kernel_initializer": {"class_name": "VarianceScaling", "config": {"distribution": "uniform", "scale": 1.0, "seed": null, "mode": "fan_avg"}}, "name": "conv2d_9", "bias_regularizer": null, "bias_constraint": null, "activation": "linear", "trainable": true, "data_format": "channels_last", "padding": "same", "strides": [1, 1], "dilation_rate": [1, 1], "kernel_regularizer": null, "filters": 32, "bias_initializer": {"class_name": "Zeros", "config": {}}, "use_bias": true, "activity_regularizer": null, "kernel_size": [1, 1]}, "inbound_nodes": [[["activation_9", 0, 0, {}]]], "name": "conv2d_9"}, {"class_name": "BatchNormalization", "config": {"beta_constraint": null, "gamma_initializer": {"class_name": "Ones", "config": {}}, "moving_mean_initializer": {"class_name": "Zeros", "config": {}}, "name": "batch_normalization_13", "epsilon": 0.001, "trainable": true, "moving_variance_initializer": {"class_name": "Ones", "config": {}}, "beta_initializer": {"class_name": "Zeros", "config": {}}, "scale": true, "axis": -1, "gamma_constraint": null, "gamma_regularizer": null, "beta_regularizer": null, "momentum": 0.99, "center": true}, "inbound_nodes": [[["conv2d_9", 0, 0, {}]]], "name": "batch_normalization_13"}, {"class_name": "Conv2D", "config": {"kernel_constraint": null, "kernel_initializer": {"class_name": "VarianceScaling", "config": {"distribution": "uniform", "scale": 1.0, "seed": null, "mode": "fan_avg"}}, "name": "conv2d_10", "bias_regularizer": null, "bias_constraint": null, "activation": "linear", "trainable": true, "data_format": "channels_last", "padding": "same", "strides": [1, 1], "dilation_rate": [1, 1], "kernel_regularizer": null, "filters": 192, "bias_initializer": {"class_name": "Zeros", "config": {}}, "use_bias": true, "activity_regularizer": null, "kernel_size": [1, 1]}, "inbound_nodes": [[["batch_normalization_13", 0, 0, {}]]], "name": "conv2d_10"}, {"class_name": "BatchNormalization", "config": {"beta_constraint": null, "gamma_initializer": {"class_name": "Ones", "config": {}}, "moving_mean_initializer": {"class_name": "Zeros", "config": {}}, "name": "batch_normalization_14", "epsilon": 0.001, "trainable": true, "moving_variance_initializer": {"class_name": "Ones", "config": {}}, "beta_initializer": {"class_name": "Zeros", "config": {}}, "scale": true, "axis": -1, "gamma_constraint": null, "gamma_regularizer": null, "beta_regularizer": null, "momentum": 0.99, "center": true}, "inbound_nodes": [[["conv2d_10", 0, 0, {}]]], "name": "batch_normalization_14"}, {"class_name": "Activation", "config": {"activation": "relu6", "trainable": true, "name": "activation_10"}, "inbound_nodes": [[["batch_normalization_14", 0, 0, {}]]], "name": "activation_10"}, {"class_name": "DepthwiseConv2D", "config": {"use_bias": true, "trainable": true, "name": "depthwise_conv2d_5", "bias_regularizer": null, "bias_constraint": null, "activation": "linear", "depth_multiplier": 1, "depthwise_constraint": null, "data_format": "channels_last", "padding": "same", "strides": [1, 1], "dilation_rate": [1, 1], "depthwise_initializer": {"class_name": "VarianceScaling", "config": {"distribution": "uniform", "scale": 1.0, "seed": null, "mode": "fan_avg"}}, "bias_initializer": {"class_name": "Zeros", "config": {}}, "depthwise_regularizer": null, "activity_regularizer": null, "kernel_size": [3, 3]}, "inbound_nodes": [[["activation_10", 0, 0, {}]]], "name": "depthwise_conv2d_5"}, {"class_name": "BatchNormalization", "config": {"beta_constraint": null, "gamma_initializer": {"class_name": "Ones", "config": {}}, "moving_mean_initializer": {"class_name": "Zeros", "config": {}}, "name": "batch_normalization_15", "epsilon": 0.001, "trainable": true, "moving_variance_initializer": {"class_name": "Ones", "config": {}}, "beta_initializer": {"class_name": "Zeros", "config": {}}, "scale": true, "axis": -1, "gamma_constraint": null, "gamma_regularizer": null, "beta_regularizer": null, "momentum": 0.99, "center": true}, "inbound_nodes": [[["depthwise_conv2d_5", 0, 0, {}]]], "name": "batch_normalization_15"}, {"class_name": "Activation", "config": {"activation": "relu6", "trainable": true, "name": "activation_11"}, "inbound_nodes": [[["batch_normalization_15", 0, 0, {}]]], "name": "activation_11"}, {"class_name": "Conv2D", "config": {"kernel_constraint": null, "kernel_initializer": {"class_name": "VarianceScaling", "config": {"distribution": "uniform", "scale": 1.0, "seed": null, "mode": "fan_avg"}}, "name": "conv2d_11", "bias_regularizer": null, "bias_constraint": null, "activation": "linear", "trainable": true, "data_format": "channels_last", "padding": "same", "strides": [1, 1], "dilation_rate": [1, 1], "kernel_regularizer": null, "filters": 32, "bias_initializer": {"class_name": "Zeros", "config": {}}, "use_bias": true, "activity_regularizer": null, "kernel_size": [1, 1]}, "inbound_nodes": [[["activation_11", 0, 0, {}]]], "name": "conv2d_11"}, {"class_name": "BatchNormalization", "config": {"beta_constraint": null, "gamma_initializer": {"class_name": "Ones", "config": {}}, "moving_mean_initializer": {"class_name": "Zeros", "config": {}}, "name": "batch_normalization_16", "epsilon": 0.001, "trainable": true, "moving_variance_initializer": {"class_name": "Ones", "config": {}}, "beta_initializer": {"class_name": "Zeros", "config": {}}, "scale": true, "axis": -1, "gamma_constraint": null, "gamma_regularizer": null, "beta_regularizer": null, "momentum": 0.99, "center": true}, "inbound_nodes": [[["conv2d_11", 0, 0, {}]]], "name": "batch_normalization_16"}, {"class_name": "Add", "config": {"trainable": true, "name": "add_2"}, "inbound_nodes": [[["batch_normalization_16", 0, 0, {}], ["batch_normalization_13", 0, 0, {}]]], "name": "add_2"}, {"class_name": "Conv2D", "config": {"kernel_constraint": null, "kernel_initializer": {"class_name": "VarianceScaling", "config": {"distribution": "uniform", "scale": 1.0, "seed": null, "mode": "fan_avg"}}, "name": "conv2d_12", "bias_regularizer": null, "bias_constraint": null, "activation": "linear", "trainable": true, "data_format": "channels_last", "padding": "same", "strides": [1, 1], "dilation_rate": [1, 1], "kernel_regularizer": null, "filters": 192, "bias_initializer": {"class_name": "Zeros", "config": {}}, "use_bias": true, "activity_regularizer": null, "kernel_size": [1, 1]}, "inbound_nodes": [[["add_2", 0, 0, {}]]], "name": "conv2d_12"}, {"class_name": "BatchNormalization", "config": {"beta_constraint": null, "gamma_initializer": {"class_name": "Ones", "config": {}}, "moving_mean_initializer": {"class_name": "Zeros", "config": {}}, "name": "batch_normalization_17", "epsilon": 0.001, "trainable": true, "moving_variance_initializer": {"class_name": "Ones", "config": {}}, "beta_initializer": {"class_name": "Zeros", "config": {}}, "scale": true, "axis": -1, "gamma_constraint": null, "gamma_regularizer": null, "beta_regularizer": null, "momentum": 0.99, "center": true}, "inbound_nodes": [[["conv2d_12", 0, 0, {}]]], "name": "batch_normalization_17"}, {"class_name": "Activation", "config": {"activation": "relu6", "trainable": true, "name": "activation_12"}, "inbound_nodes": [[["batch_normalization_17", 0, 0, {}]]], "name": "activation_12"}, {"class_name": "DepthwiseConv2D", "config": {"use_bias": true, "trainable": true, "name": "depthwise_conv2d_6", "bias_regularizer": null, "bias_constraint": null, "activation": "linear", "depth_multiplier": 1, "depthwise_constraint": null, "data_format": "channels_last", "padding": "same", "strides": [1, 1], "dilation_rate": [1, 1], "depthwise_initializer": {"class_name": "VarianceScaling", "config": {"distribution": "uniform", "scale": 1.0, "seed": null, "mode": "fan_avg"}}, "bias_initializer": {"class_name": "Zeros", "config": {}}, "depthwise_regularizer": null, "activity_regularizer": null, "kernel_size": [3, 3]}, "inbound_nodes": [[["activation_12", 0, 0, {}]]], "name": "depthwise_conv2d_6"}, {"class_name": "BatchNormalization", "config": {"beta_constraint": null, "gamma_initializer": {"class_name": "Ones", "config": {}}, "moving_mean_initializer": {"class_name": "Zeros", "config": {}}, "name": "batch_normalization_18", "epsilon": 0.001, "trainable": true, "moving_variance_initializer": {"class_name": "Ones", "config": {}}, "beta_initializer": {"class_name": "Zeros", "config": {}}, "scale": true, "axis": -1, "gamma_constraint": null, "gamma_regularizer": null, "beta_regularizer": null, "momentum": 0.99, "center": true}, "inbound_nodes": [[["depthwise_conv2d_6", 0, 0, {}]]], "name": "batch_normalization_18"}, {"class_name": "Activation", "config": {"activation": "relu6", "trainable": true, "name": "activation_13"}, "inbound_nodes": [[["batch_normalization_18", 0, 0, {}]]], "name": "activation_13"}, {"class_name": "Conv2D", "config": {"kernel_constraint": null, "kernel_initializer": {"class_name": "VarianceScaling", "config": {"distribution": "uniform", "scale": 1.0, "seed": null, "mode": "fan_avg"}}, "name": "conv2d_13", "bias_regularizer": null, "bias_constraint": null, "activation": "linear", "trainable": true, "data_format": "channels_last", "padding": "same", "strides": [1, 1], "dilation_rate": [1, 1], "kernel_regularizer": null, "filters": 32, "bias_initializer": {"class_name": "Zeros", "config": {}}, "use_bias": true, "activity_regularizer": null, "kernel_size": [1, 1]}, "inbound_nodes": [[["activation_13", 0, 0, {}]]], "name": "conv2d_13"}, {"class_name": "BatchNormalization", "config": {"beta_constraint": null, "gamma_initializer": {"class_name": "Ones", "config": {}}, "moving_mean_initializer": {"class_name": "Zeros", "config": {}}, "name": "batch_normalization_19", "epsilon": 0.001, "trainable": true, "moving_variance_initializer": {"class_name": "Ones", "config": {}}, "beta_initializer": {"class_name": "Zeros", "config": {}}, "scale": true, "axis": -1, "gamma_constraint": null, "gamma_regularizer": null, "beta_regularizer": null, "momentum": 0.99, "center": true}, "inbound_nodes": [[["conv2d_13", 0, 0, {}]]], "name": "batch_normalization_19"}, {"class_name": "Add", "config": {"trainable": true, "name": "add_3"}, "inbound_nodes": [[["batch_normalization_19", 0, 0, {}], ["add_2", 0, 0, {}]]], "name": "add_3"}, {"class_name": "Conv2D", "config": {"kernel_constraint": null, "kernel_initializer": {"class_name": "VarianceScaling", "config": {"distribution": "uniform", "scale": 1.0, "seed": null, "mode": "fan_avg"}}, "name": "conv2d_14", "bias_regularizer": null, "bias_constraint": null, "activation": "linear", "trainable": true, "data_format": "channels_last", "padding": "same", "strides": [1, 1], "dilation_rate": [1, 1], "kernel_regularizer": null, "filters": 192, "bias_initializer": {"class_name": "Zeros", "config": {}}, "use_bias": true, "activity_regularizer": null, "kernel_size": [1, 1]}, "inbound_nodes": [[["add_3", 0, 0, {}]]], "name": "conv2d_14"}, {"class_name": "BatchNormalization", "config": {"beta_constraint": null, "gamma_initializer": {"class_name": "Ones", "config": {}}, "moving_mean_initializer": {"class_name": "Zeros", "config": {}}, "name": "batch_normalization_20", "epsilon": 0.001, "trainable": true, "moving_variance_initializer": {"class_name": "Ones", "config": {}}, "beta_initializer": {"class_name": "Zeros", "config": {}}, "scale": true, "axis": -1, "gamma_constraint": null, "gamma_regularizer": null, "beta_regularizer": null, "momentum": 0.99, "center": true}, "inbound_nodes": [[["conv2d_14", 0, 0, {}]]], "name": "batch_normalization_20"}, {"class_name": "Activation", "config": {"activation": "relu6", "trainable": true, "name": "activation_14"}, "inbound_nodes": [[["batch_normalization_20", 0, 0, {}]]], "name": "activation_14"}, {"class_name": "DepthwiseConv2D", "config": {"use_bias": true, "trainable": true, "name": "depthwise_conv2d_7", "bias_regularizer": null, "bias_constraint": null, "activation": "linear", "depth_multiplier": 1, "depthwise_constraint": null, "data_format": "channels_last", "padding": "same", "strides": [2, 2], "dilation_rate": [1, 1], "depthwise_initializer": {"class_name": "VarianceScaling", "config": {"distribution": "uniform", "scale": 1.0, "seed": null, "mode": "fan_avg"}}, "bias_initializer": {"class_name": "Zeros", "config": {}}, "depthwise_regularizer": null, "activity_regularizer": null, "kernel_size": [3, 3]}, "inbound_nodes": [[["activation_14", 0, 0, {}]]], "name": "depthwise_conv2d_7"}, {"class_name": "BatchNormalization", "config": {"beta_constraint": null, "gamma_initializer": {"class_name": "Ones", "config": {}}, "moving_mean_initializer": {"class_name": "Zeros", "config": {}}, "name": "batch_normalization_21", "epsilon": 0.001, "trainable": true, "moving_variance_initializer": {"class_name": "Ones", "config": {}}, "beta_initializer": {"class_name": "Zeros", "config": {}}, "scale": true, "axis": -1, "gamma_constraint": null, "gamma_regularizer": null, "beta_regularizer": null, "momentum": 0.99, "center": true}, "inbound_nodes": [[["depthwise_conv2d_7", 0, 0, {}]]], "name": "batch_normalization_21"}, {"class_name": "Activation", "config": {"activation": "relu6", "trainable": true, "name": "activation_15"}, "inbound_nodes": [[["batch_normalization_21", 0, 0, {}]]], "name": "activation_15"}, {"class_name": "Conv2D", "config": {"kernel_constraint": null, "kernel_initializer": {"class_name": "VarianceScaling", "config": {"distribution": "uniform", "scale": 1.0, "seed": null, "mode": "fan_avg"}}, "name": "conv2d_15", "bias_regularizer": null, "bias_constraint": null, "activation": "linear", "trainable": true, "data_format": "channels_last", "padding": "same", "strides": [1, 1], "dilation_rate": [1, 1], "kernel_regularizer": null, "filters": 64, "bias_initializer": {"class_name": "Zeros", "config": {}}, "use_bias": true, "activity_regularizer": null, "kernel_size": [1, 1]}, "inbound_nodes": [[["activation_15", 0, 0, {}]]], "name": "conv2d_15"}, {"class_name": "BatchNormalization", "config": {"beta_constraint": null, "gamma_initializer": {"class_name": "Ones", "config": {}}, "moving_mean_initializer": {"class_name": "Zeros", "config": {}}, "name": "batch_normalization_22", "epsilon": 0.001, "trainable": true, "moving_variance_initializer": {"class_name": "Ones", "config": {}}, "beta_initializer": {"class_name": "Zeros", "config": {}}, "scale": true, "axis": -1, "gamma_constraint": null, "gamma_regularizer": null, "beta_regularizer": null, "momentum": 0.99, "center": true}, "inbound_nodes": [[["conv2d_15", 0, 0, {}]]], "name": "batch_normalization_22"}, {"class_name": "Conv2D", "config": {"kernel_constraint": null, "kernel_initializer": {"class_name": "VarianceScaling", "config": {"distribution": "uniform", "scale": 1.0, "seed": null, "mode": "fan_avg"}}, "name": "conv2d_16", "bias_regularizer": null, "bias_constraint": null, "activation": "linear", "trainable": true, "data_format": "channels_last", "padding": "same", "strides": [1, 1], "dilation_rate": [1, 1], "kernel_regularizer": null, "filters": 384, "bias_initializer": {"class_name": "Zeros", "config": {}}, "use_bias": true, "activity_regularizer": null, "kernel_size": [1, 1]}, "inbound_nodes": [[["batch_normalization_22", 0, 0, {}]]], "name": "conv2d_16"}, {"class_name": "BatchNormalization", "config": {"beta_constraint": null, "gamma_initializer": {"class_name": "Ones", "config": {}}, "moving_mean_initializer": {"class_name": "Zeros", "config": {}}, "name": "batch_normalization_23", "epsilon": 0.001, "trainable": true, "moving_variance_initializer": {"class_name": "Ones", "config": {}}, "beta_initializer": {"class_name": "Zeros", "config": {}}, "scale": true, "axis": -1, "gamma_constraint": null, "gamma_regularizer": null, "beta_regularizer": null, "momentum": 0.99, "center": true}, "inbound_nodes": [[["conv2d_16", 0, 0, {}]]], "name": "batch_normalization_23"}, {"class_name": "Activation", "config": {"activation": "relu6", "trainable": true, "name": "activation_16"}, "inbound_nodes": [[["batch_normalization_23", 0, 0, {}]]], "name": "activation_16"}, {"class_name": "DepthwiseConv2D", "config": {"use_bias": true, "trainable": true, "name": "depthwise_conv2d_8", "bias_regularizer": null, "bias_constraint": null, "activation": "linear", "depth_multiplier": 1, "depthwise_constraint": null, "data_format": "channels_last", "padding": "same", "strides": [1, 1], "dilation_rate": [1, 1], "depthwise_initializer": {"class_name": "VarianceScaling", "config": {"distribution": "uniform", "scale": 1.0, "seed": null, "mode": "fan_avg"}}, "bias_initializer": {"class_name": "Zeros", "config": {}}, "depthwise_regularizer": null, "activity_regularizer": null, "kernel_size": [3, 3]}, "inbound_nodes": [[["activation_16", 0, 0, {}]]], "name": "depthwise_conv2d_8"}, {"class_name": "BatchNormalization", "config": {"beta_constraint": null, "gamma_initializer": {"class_name": "Ones", "config": {}}, "moving_mean_initializer": {"class_name": "Zeros", "config": {}}, "name": "batch_normalization_24", "epsilon": 0.001, "trainable": true, "moving_variance_initializer": {"class_name": "Ones", "config": {}}, "beta_initializer": {"class_name": "Zeros", "config": {}}, "scale": true, "axis": -1, "gamma_constraint": null, "gamma_regularizer": null, "beta_regularizer": null, "momentum": 0.99, "center": true}, "inbound_nodes": [[["depthwise_conv2d_8", 0, 0, {}]]], "name": "batch_normalization_24"}, {"class_name": "Activation", "config": {"activation": "relu6", "trainable": true, "name": "activation_17"}, "inbound_nodes": [[["batch_normalization_24", 0, 0, {}]]], "name": "activation_17"}, {"class_name": "Conv2D", "config": {"kernel_constraint": null, "kernel_initializer": {"class_name": "VarianceScaling", "config": {"distribution": "uniform", "scale": 1.0, "seed": null, "mode": "fan_avg"}}, "name": "conv2d_17", "bias_regularizer": null, "bias_constraint": null, "activation": "linear", "trainable": true, "data_format": "channels_last", "padding": "same", "strides": [1, 1], "dilation_rate": [1, 1], "kernel_regularizer": null, "filters": 64, "bias_initializer": {"class_name": "Zeros", "config": {}}, "use_bias": true, "activity_regularizer": null, "kernel_size": [1, 1]}, "inbound_nodes": [[["activation_17", 0, 0, {}]]], "name": "conv2d_17"}, {"class_name": "BatchNormalization", "config": {"beta_constraint": null, "gamma_initializer": {"class_name": "Ones", "config": {}}, "moving_mean_initializer": {"class_name": "Zeros", "config": {}}, "name": "batch_normalization_25", "epsilon": 0.001, "trainable": true, "moving_variance_initializer": {"class_name": "Ones", "config": {}}, "beta_initializer": {"class_name": "Zeros", "config": {}}, "scale": true, "axis": -1, "gamma_constraint": null, "gamma_regularizer": null, "beta_regularizer": null, "momentum": 0.99, "center": true}, "inbound_nodes": [[["conv2d_17", 0, 0, {}]]], "name": "batch_normalization_25"}, {"class_name": "Add", "config": {"trainable": true, "name": "add_4"}, "inbound_nodes": [[["batch_normalization_25", 0, 0, {}], ["batch_normalization_22", 0, 0, {}]]], "name": "add_4"}, {"class_name": "Conv2D", "config": {"kernel_constraint": null, "kernel_initializer": {"class_name": "VarianceScaling", "config": {"distribution": "uniform", "scale": 1.0, "seed": null, "mode": "fan_avg"}}, "name": "conv2d_18", "bias_regularizer": null, "bias_constraint": null, "activation": "linear", "trainable": true, "data_format": "channels_last", "padding": "same", "strides": [1, 1], "dilation_rate": [1, 1], "kernel_regularizer": null, "filters": 384, "bias_initializer": {"class_name": "Zeros", "config": {}}, "use_bias": true, "activity_regularizer": null, "kernel_size": [1, 1]}, "inbound_nodes": [[["add_4", 0, 0, {}]]], "name": "conv2d_18"}, {"class_name": "BatchNormalization", "config": {"beta_constraint": null, "gamma_initializer": {"class_name": "Ones", "config": {}}, "moving_mean_initializer": {"class_name": "Zeros", "config": {}}, "name": "batch_normalization_26", "epsilon": 0.001, "trainable": true, "moving_variance_initializer": {"class_name": "Ones", "config": {}}, "beta_initializer": {"class_name": "Zeros", "config": {}}, "scale": true, "axis": -1, "gamma_constraint": null, "gamma_regularizer": null, "beta_regularizer": null, "momentum": 0.99, "center": true}, "inbound_nodes": [[["conv2d_18", 0, 0, {}]]], "name": "batch_normalization_26"}, {"class_name": "Activation", "config": {"activation": "relu6", "trainable": true, "name": "activation_18"}, "inbound_nodes": [[["batch_normalization_26", 0, 0, {}]]], "name": "activation_18"}, {"class_name": "DepthwiseConv2D", "config": {"use_bias": true, "trainable": true, "name": "depthwise_conv2d_9", "bias_regularizer": null, "bias_constraint": null, "activation": "linear", "depth_multiplier": 1, "depthwise_constraint": null, "data_format": "channels_last", "padding": "same", "strides": [1, 1], "dilation_rate": [1, 1], "depthwise_initializer": {"class_name": "VarianceScaling", "config": {"distribution": "uniform", "scale": 1.0, "seed": null, "mode": "fan_avg"}}, "bias_initializer": {"class_name": "Zeros", "config": {}}, "depthwise_regularizer": null, "activity_regularizer": null, "kernel_size": [3, 3]}, "inbound_nodes": [[["activation_18", 0, 0, {}]]], "name": "depthwise_conv2d_9"}, {"class_name": "BatchNormalization", "config": {"beta_constraint": null, "gamma_initializer": {"class_name": "Ones", "config": {}}, "moving_mean_initializer": {"class_name": "Zeros", "config": {}}, "name": "batch_normalization_27", "epsilon": 0.001, "trainable": true, "moving_variance_initializer": {"class_name": "Ones", "config": {}}, "beta_initializer": {"class_name": "Zeros", "config": {}}, "scale": true, "axis": -1, "gamma_constraint": null, "gamma_regularizer": null, "beta_regularizer": null, "momentum": 0.99, "center": true}, "inbound_nodes": [[["depthwise_conv2d_9", 0, 0, {}]]], "name": "batch_normalization_27"}, {"class_name": "Activation", "config": {"activation": "relu6", "trainable": true, "name": "activation_19"}, "inbound_nodes": [[["batch_normalization_27", 0, 0, {}]]], "name": "activation_19"}, {"class_name": "Conv2D", "config": {"kernel_constraint": null, "kernel_initializer": {"class_name": "VarianceScaling", "config": {"distribution": "uniform", "scale": 1.0, "seed": null, "mode": "fan_avg"}}, "name": "conv2d_19", "bias_regularizer": null, "bias_constraint": null, "activation": "linear", "trainable": true, "data_format": "channels_last", "padding": "same", "strides": [1, 1], "dilation_rate": [1, 1], "kernel_regularizer": null, "filters": 64, "bias_initializer": {"class_name": "Zeros", "config": {}}, "use_bias": true, "activity_regularizer": null, "kernel_size": [1, 1]}, "inbound_nodes": [[["activation_19", 0, 0, {}]]], "name": "conv2d_19"}, {"class_name": "BatchNormalization", "config": {"beta_constraint": null, "gamma_initializer": {"class_name": "Ones", "config": {}}, "moving_mean_initializer": {"class_name": "Zeros", "config": {}}, "name": "batch_normalization_28", "epsilon": 0.001, "trainable": true, "moving_variance_initializer": {"class_name": "Ones", "config": {}}, "beta_initializer": {"class_name": "Zeros", "config": {}}, "scale": true, "axis": -1, "gamma_constraint": null, "gamma_regularizer": null, "beta_regularizer": null, "momentum": 0.99, "center": true}, "inbound_nodes": [[["conv2d_19", 0, 0, {}]]], "name": "batch_normalization_28"}, {"class_name": "Add", "config": {"trainable": true, "name": "add_5"}, "inbound_nodes": [[["batch_normalization_28", 0, 0, {}], ["add_4", 0, 0, {}]]], "name": "add_5"}, {"class_name": "Conv2D", "config": {"kernel_constraint": null, "kernel_initializer": {"class_name": "VarianceScaling", "config": {"distribution": "uniform", "scale": 1.0, "seed": null, "mode": "fan_avg"}}, "name": "conv2d_20", "bias_regularizer": null, "bias_constraint": null, "activation": "linear", "trainable": true, "data_format": "channels_last", "padding": "same", "strides": [1, 1], "dilation_rate": [1, 1], "kernel_regularizer": null, "filters": 384, "bias_initializer": {"class_name": "Zeros", "config": {}}, "use_bias": true, "activity_regularizer": null, "kernel_size": [1, 1]}, "inbound_nodes": [[["add_5", 0, 0, {}]]], "name": "conv2d_20"}, {"class_name": "BatchNormalization", "config": {"beta_constraint": null, "gamma_initializer": {"class_name": "Ones", "config": {}}, "moving_mean_initializer": {"class_name": "Zeros", "config": {}}, "name": "batch_normalization_29", "epsilon": 0.001, "trainable": true, "moving_variance_initializer": {"class_name": "Ones", "config": {}}, "beta_initializer": {"class_name": "Zeros", "config": {}}, "scale": true, "axis": -1, "gamma_constraint": null, "gamma_regularizer": null, "beta_regularizer": null, "momentum": 0.99, "center": true}, "inbound_nodes": [[["conv2d_20", 0, 0, {}]]], "name": "batch_normalization_29"}, {"class_name": "Activation", "config": {"activation": "relu6", "trainable": true, "name": "activation_20"}, "inbound_nodes": [[["batch_normalization_29", 0, 0, {}]]], "name": "activation_20"}, {"class_name": "DepthwiseConv2D", "config": {"use_bias": true, "trainable": true, "name": "depthwise_conv2d_10", "bias_regularizer": null, "bias_constraint": null, "activation": "linear", "depth_multiplier": 1, "depthwise_constraint": null, "data_format": "channels_last", "padding": "same", "strides": [1, 1], "dilation_rate": [1, 1], "depthwise_initializer": {"class_name": "VarianceScaling", "config": {"distribution": "uniform", "scale": 1.0, "seed": null, "mode": "fan_avg"}}, "bias_initializer": {"class_name": "Zeros", "config": {}}, "depthwise_regularizer": null, "activity_regularizer": null, "kernel_size": [3, 3]}, "inbound_nodes": [[["activation_20", 0, 0, {}]]], "name": "depthwise_conv2d_10"}, {"class_name": "BatchNormalization", "config": {"beta_constraint": null, "gamma_initializer": {"class_name": "Ones", "config": {}}, "moving_mean_initializer": {"class_name": "Zeros", "config": {}}, "name": "batch_normalization_30", "epsilon": 0.001, "trainable": true, "moving_variance_initializer": {"class_name": "Ones", "config": {}}, "beta_initializer": {"class_name": "Zeros", "config": {}}, "scale": true, "axis": -1, "gamma_constraint": null, "gamma_regularizer": null, "beta_regularizer": null, "momentum": 0.99, "center": true}, "inbound_nodes": [[["depthwise_conv2d_10", 0, 0, {}]]], "name": "batch_normalization_30"}, {"class_name": "Activation", "config": {"activation": "relu6", "trainable": true, "name": "activation_21"}, "inbound_nodes": [[["batch_normalization_30", 0, 0, {}]]], "name": "activation_21"}, {"class_name": "Conv2D", "config": {"kernel_constraint": null, "kernel_initializer": {"class_name": "VarianceScaling", "config": {"distribution": "uniform", "scale": 1.0, "seed": null, "mode": "fan_avg"}}, "name": "conv2d_21", "bias_regularizer": null, "bias_constraint": null, "activation": "linear", "trainable": true, "data_format": "channels_last", "padding": "same", "strides": [1, 1], "dilation_rate": [1, 1], "kernel_regularizer": null, "filters": 64, "bias_initializer": {"class_name": "Zeros", "config": {}}, "use_bias": true, "activity_regularizer": null, "kernel_size": [1, 1]}, "inbound_nodes": [[["activation_21", 0, 0, {}]]], "name": "conv2d_21"}, {"class_name": "BatchNormalization", "config": {"beta_constraint": null, "gamma_initializer": {"class_name": "Ones", "config": {}}, "moving_mean_initializer": {"class_name": "Zeros", "config": {}}, "name": "batch_normalization_31", "epsilon": 0.001, "trainable": true, "moving_variance_initializer": {"class_name": "Ones", "config": {}}, "beta_initializer": {"class_name": "Zeros", "config": {}}, "scale": true, "axis": -1, "gamma_constraint": null, "gamma_regularizer": null, "beta_regularizer": null, "momentum": 0.99, "center": true}, "inbound_nodes": [[["conv2d_21", 0, 0, {}]]], "name": "batch_normalization_31"}, {"class_name": "Add", "config": {"trainable": true, "name": "add_6"}, "inbound_nodes": [[["batch_normalization_31", 0, 0, {}], ["add_5", 0, 0, {}]]], "name": "add_6"}, {"class_name": "Conv2D", "config": {"kernel_constraint": null, "kernel_initializer": {"class_name": "VarianceScaling", "config": {"distribution": "uniform", "scale": 1.0, "seed": null, "mode": "fan_avg"}}, "name": "conv2d_22", "bias_regularizer": null, "bias_constraint": null, "activation": "linear", "trainable": true, "data_format": "channels_last", "padding": "same", "strides": [1, 1], "dilation_rate": [1, 1], "kernel_regularizer": null, "filters": 384, "bias_initializer": {"class_name": "Zeros", "config": {}}, "use_bias": true, "activity_regularizer": null, "kernel_size": [1, 1]}, "inbound_nodes": [[["add_6", 0, 0, {}]]], "name": "conv2d_22"}, {"class_name": "BatchNormalization", "config": {"beta_constraint": null, "gamma_initializer": {"class_name": "Ones", "config": {}}, "moving_mean_initializer": {"class_name": "Zeros", "config": {}}, "name": "batch_normalization_32", "epsilon": 0.001, "trainable": true, "moving_variance_initializer": {"class_name": "Ones", "config": {}}, "beta_initializer": {"class_name": "Zeros", "config": {}}, "scale": true, "axis": -1, "gamma_constraint": null, "gamma_regularizer": null, "beta_regularizer": null, "momentum": 0.99, "center": true}, "inbound_nodes": [[["conv2d_22", 0, 0, {}]]], "name": "batch_normalization_32"}, {"class_name": "Activation", "config": {"activation": "relu6", "trainable": true, "name": "activation_22"}, "inbound_nodes": [[["batch_normalization_32", 0, 0, {}]]], "name": "activation_22"}, {"class_name": "DepthwiseConv2D", "config": {"use_bias": true, "trainable": true, "name": "depthwise_conv2d_11", "bias_regularizer": null, "bias_constraint": null, "activation": "linear", "depth_multiplier": 1, "depthwise_constraint": null, "data_format": "channels_last", "padding": "same", "strides": [1, 1], "dilation_rate": [1, 1], "depthwise_initializer": {"class_name": "VarianceScaling", "config": {"distribution": "uniform", "scale": 1.0, "seed": null, "mode": "fan_avg"}}, "bias_initializer": {"class_name": "Zeros", "config": {}}, "depthwise_regularizer": null, "activity_regularizer": null, "kernel_size": [3, 3]}, "inbound_nodes": [[["activation_22", 0, 0, {}]]], "name": "depthwise_conv2d_11"}, {"class_name": "BatchNormalization", "config": {"beta_constraint": null, "gamma_initializer": {"class_name": "Ones", "config": {}}, "moving_mean_initializer": {"class_name": "Zeros", "config": {}}, "name": "batch_normalization_33", "epsilon": 0.001, "trainable": true, "moving_variance_initializer": {"class_name": "Ones", "config": {}}, "beta_initializer": {"class_name": "Zeros", "config": {}}, "scale": true, "axis": -1, "gamma_constraint": null, "gamma_regularizer": null, "beta_regularizer": null, "momentum": 0.99, "center": true}, "inbound_nodes": [[["depthwise_conv2d_11", 0, 0, {}]]], "name": "batch_normalization_33"}, {"class_name": "Activation", "config": {"activation": "relu6", "trainable": true, "name": "activation_23"}, "inbound_nodes": [[["batch_normalization_33", 0, 0, {}]]], "name": "activation_23"}, {"class_name": "Conv2D", "config": {"kernel_constraint": null, "kernel_initializer": {"class_name": "VarianceScaling", "config": {"distribution": "uniform", "scale": 1.0, "seed": null, "mode": "fan_avg"}}, "name": "conv2d_23", "bias_regularizer": null, "bias_constraint": null, "activation": "linear", "trainable": true, "data_format": "channels_last", "padding": "same", "strides": [1, 1], "dilation_rate": [1, 1], "kernel_regularizer": null, "filters": 96, "bias_initializer": {"class_name": "Zeros", "config": {}}, "use_bias": true, "activity_regularizer": null, "kernel_size": [1, 1]}, "inbound_nodes": [[["activation_23", 0, 0, {}]]], "name": "conv2d_23"}, {"class_name": "BatchNormalization", "config": {"beta_constraint": null, "gamma_initializer": {"class_name": "Ones", "config": {}}, "moving_mean_initializer": {"class_name": "Zeros", "config": {}}, "name": "batch_normalization_34", "epsilon": 0.001, "trainable": true, "moving_variance_initializer": {"class_name": "Ones", "config": {}}, "beta_initializer": {"class_name": "Zeros", "config": {}}, "scale": true, "axis": -1, "gamma_constraint": null, "gamma_regularizer": null, "beta_regularizer": null, "momentum": 0.99, "center": true}, "inbound_nodes": [[["conv2d_23", 0, 0, {}]]], "name": "batch_normalization_34"}, {"class_name": "Conv2D", "config": {"kernel_constraint": null, "kernel_initializer": {"class_name": "VarianceScaling", "config": {"distribution": "uniform", "scale": 1.0, "seed": null, "mode": "fan_avg"}}, "name": "conv2d_24", "bias_regularizer": null, "bias_constraint": null, "activation": "linear", "trainable": true, "data_format": "channels_last", "padding": "same", "strides": [1, 1], "dilation_rate": [1, 1], "kernel_regularizer": null, "filters": 576, "bias_initializer": {"class_name": "Zeros", "config": {}}, "use_bias": true, "activity_regularizer": null, "kernel_size": [1, 1]}, "inbound_nodes": [[["batch_normalization_34", 0, 0, {}]]], "name": "conv2d_24"}, {"class_name": "BatchNormalization", "config": {"beta_constraint": null, "gamma_initializer": {"class_name": "Ones", "config": {}}, "moving_mean_initializer": {"class_name": "Zeros", "config": {}}, "name": "batch_normalization_35", "epsilon": 0.001, "trainable": true, "moving_variance_initializer": {"class_name": "Ones", "config": {}}, "beta_initializer": {"class_name": "Zeros", "config": {}}, "scale": true, "axis": -1, "gamma_constraint": null, "gamma_regularizer": null, "beta_regularizer": null, "momentum": 0.99, "center": true}, "inbound_nodes": [[["conv2d_24", 0, 0, {}]]], "name": "batch_normalization_35"}, {"class_name": "Activation", "config": {"activation": "relu6", "trainable": true, "name": "activation_24"}, "inbound_nodes": [[["batch_normalization_35", 0, 0, {}]]], "name": "activation_24"}, {"class_name": "DepthwiseConv2D", "config": {"use_bias": true, "trainable": true, "name": "depthwise_conv2d_12", "bias_regularizer": null, "bias_constraint": null, "activation": "linear", "depth_multiplier": 1, "depthwise_constraint": null, "data_format": "channels_last", "padding": "same", "strides": [1, 1], "dilation_rate": [1, 1], "depthwise_initializer": {"class_name": "VarianceScaling", "config": {"distribution": "uniform", "scale": 1.0, "seed": null, "mode": "fan_avg"}}, "bias_initializer": {"class_name": "Zeros", "config": {}}, "depthwise_regularizer": null, "activity_regularizer": null, "kernel_size": [3, 3]}, "inbound_nodes": [[["activation_24", 0, 0, {}]]], "name": "depthwise_conv2d_12"}, {"class_name": "BatchNormalization", "config": {"beta_constraint": null, "gamma_initializer": {"class_name": "Ones", "config": {}}, "moving_mean_initializer": {"class_name": "Zeros", "config": {}}, "name": "batch_normalization_36", "epsilon": 0.001, "trainable": true, "moving_variance_initializer": {"class_name": "Ones", "config": {}}, "beta_initializer": {"class_name": "Zeros", "config": {}}, "scale": true, "axis": -1, "gamma_constraint": null, "gamma_regularizer": null, "beta_regularizer": null, "momentum": 0.99, "center": true}, "inbound_nodes": [[["depthwise_conv2d_12", 0, 0, {}]]], "name": "batch_normalization_36"}, {"class_name": "Activation", "config": {"activation": "relu6", "trainable": true, "name": "activation_25"}, "inbound_nodes": [[["batch_normalization_36", 0, 0, {}]]], "name": "activation_25"}, {"class_name": "Conv2D", "config": {"kernel_constraint": null, "kernel_initializer": {"class_name": "VarianceScaling", "config": {"distribution": "uniform", "scale": 1.0, "seed": null, "mode": "fan_avg"}}, "name": "conv2d_25", "bias_regularizer": null, "bias_constraint": null, "activation": "linear", "trainable": true, "data_format": "channels_last", "padding": "same", "strides": [1, 1], "dilation_rate": [1, 1], "kernel_regularizer": null, "filters": 96, "bias_initializer": {"class_name": "Zeros", "config": {}}, "use_bias": true, "activity_regularizer": null, "kernel_size": [1, 1]}, "inbound_nodes": [[["activation_25", 0, 0, {}]]], "name": "conv2d_25"}, {"class_name": "BatchNormalization", "config": {"beta_constraint": null, "gamma_initializer": {"class_name": "Ones", "config": {}}, "moving_mean_initializer": {"class_name": "Zeros", "config": {}}, "name": "batch_normalization_37", "epsilon": 0.001, "trainable": true, "moving_variance_initializer": {"class_name": "Ones", "config": {}}, "beta_initializer": {"class_name": "Zeros", "config": {}}, "scale": true, "axis": -1, "gamma_constraint": null, "gamma_regularizer": null, "beta_regularizer": null, "momentum": 0.99, "center": true}, "inbound_nodes": [[["conv2d_25", 0, 0, {}]]], "name": "batch_normalization_37"}, {"class_name": "Add", "config": {"trainable": true, "name": "add_7"}, "inbound_nodes": [[["batch_normalization_37", 0, 0, {}], ["batch_normalization_34", 0, 0, {}]]], "name": "add_7"}, {"class_name": "Conv2D", "config": {"kernel_constraint": null, "kernel_initializer": {"class_name": "VarianceScaling", "config": {"distribution": "uniform", "scale": 1.0, "seed": null, "mode": "fan_avg"}}, "name": "conv2d_26", "bias_regularizer": null, "bias_constraint": null, "activation": "linear", "trainable": true, "data_format": "channels_last", "padding": "same", "strides": [1, 1], "dilation_rate": [1, 1], "kernel_regularizer": null, "filters": 576, "bias_initializer": {"class_name": "Zeros", "config": {}}, "use_bias": true, "activity_regularizer": null, "kernel_size": [1, 1]}, "inbound_nodes": [[["add_7", 0, 0, {}]]], "name": "conv2d_26"}, {"class_name": "BatchNormalization", "config": {"beta_constraint": null, "gamma_initializer": {"class_name": "Ones", "config": {}}, "moving_mean_initializer": {"class_name": "Zeros", "config": {}}, "name": "batch_normalization_38", "epsilon": 0.001, "trainable": true, "moving_variance_initializer": {"class_name": "Ones", "config": {}}, "beta_initializer": {"class_name": "Zeros", "config": {}}, "scale": true, "axis": -1, "gamma_constraint": null, "gamma_regularizer": null, "beta_regularizer": null, "momentum": 0.99, "center": true}, "inbound_nodes": [[["conv2d_26", 0, 0, {}]]], "name": "batch_normalization_38"}, {"class_name": "Activation", "config": {"activation": "relu6", "trainable": true, "name": "activation_26"}, "inbound_nodes": [[["batch_normalization_38", 0, 0, {}]]], "name": "activation_26"}, {"class_name": "DepthwiseConv2D", "config": {"use_bias": true, "trainable": true, "name": "depthwise_conv2d_13", "bias_regularizer": null, "bias_constraint": null, "activation": "linear", "depth_multiplier": 1, "depthwise_constraint": null, "data_format": "channels_last", "padding": "same", "strides": [1, 1], "dilation_rate": [1, 1], "depthwise_initializer": {"class_name": "VarianceScaling", "config": {"distribution": "uniform", "scale": 1.0, "seed": null, "mode": "fan_avg"}}, "bias_initializer": {"class_name": "Zeros", "config": {}}, "depthwise_regularizer": null, "activity_regularizer": null, "kernel_size": [3, 3]}, "inbound_nodes": [[["activation_26", 0, 0, {}]]], "name": "depthwise_conv2d_13"}, {"class_name": "BatchNormalization", "config": {"beta_constraint": null, "gamma_initializer": {"class_name": "Ones", "config": {}}, "moving_mean_initializer": {"class_name": "Zeros", "config": {}}, "name": "batch_normalization_39", "epsilon": 0.001, "trainable": true, "moving_variance_initializer": {"class_name": "Ones", "config": {}}, "beta_initializer": {"class_name": "Zeros", "config": {}}, "scale": true, "axis": -1, "gamma_constraint": null, "gamma_regularizer": null, "beta_regularizer": null, "momentum": 0.99, "center": true}, "inbound_nodes": [[["depthwise_conv2d_13", 0, 0, {}]]], "name": "batch_normalization_39"}, {"class_name": "Activation", "config": {"activation": "relu6", "trainable": true, "name": "activation_27"}, "inbound_nodes": [[["batch_normalization_39", 0, 0, {}]]], "name": "activation_27"}, {"class_name": "Conv2D", "config": {"kernel_constraint": null, "kernel_initializer": {"class_name": "VarianceScaling", "config": {"distribution": "uniform", "scale": 1.0, "seed": null, "mode": "fan_avg"}}, "name": "conv2d_27", "bias_regularizer": null, "bias_constraint": null, "activation": "linear", "trainable": true, "data_format": "channels_last", "padding": "same", "strides": [1, 1], "dilation_rate": [1, 1], "kernel_regularizer": null, "filters": 96, "bias_initializer": {"class_name": "Zeros", "config": {}}, "use_bias": true, "activity_regularizer": null, "kernel_size": [1, 1]}, "inbound_nodes": [[["activation_27", 0, 0, {}]]], "name": "conv2d_27"}, {"class_name": "BatchNormalization", "config": {"beta_constraint": null, "gamma_initializer": {"class_name": "Ones", "config": {}}, "moving_mean_initializer": {"class_name": "Zeros", "config": {}}, "name": "batch_normalization_40", "epsilon": 0.001, "trainable": true, "moving_variance_initializer": {"class_name": "Ones", "config": {}}, "beta_initializer": {"class_name": "Zeros", "config": {}}, "scale": true, "axis": -1, "gamma_constraint": null, "gamma_regularizer": null, "beta_regularizer": null, "momentum": 0.99, "center": true}, "inbound_nodes": [[["conv2d_27", 0, 0, {}]]], "name": "batch_normalization_40"}, {"class_name": "Add", "config": {"trainable": true, "name": "add_8"}, "inbound_nodes": [[["batch_normalization_40", 0, 0, {}], ["add_7", 0, 0, {}]]], "name": "add_8"}, {"class_name": "Conv2D", "config": {"kernel_constraint": null, "kernel_initializer": {"class_name": "VarianceScaling", "config": {"distribution": "uniform", "scale": 1.0, "seed": null, "mode": "fan_avg"}}, "name": "conv2d_28", "bias_regularizer": null, "bias_constraint": null, "activation": "linear", "trainable": true, "data_format": "channels_last", "padding": "same", "strides": [1, 1], "dilation_rate": [1, 1], "kernel_regularizer": null, "filters": 576, "bias_initializer": {"class_name": "Zeros", "config": {}}, "use_bias": true, "activity_regularizer": null, "kernel_size": [1, 1]}, "inbound_nodes": [[["add_8", 0, 0, {}]]], "name": "conv2d_28"}, {"class_name": "BatchNormalization", "config": {"beta_constraint": null, "gamma_initializer": {"class_name": "Ones", "config": {}}, "moving_mean_initializer": {"class_name": "Zeros", "config": {}}, "name": "batch_normalization_41", "epsilon": 0.001, "trainable": true, "moving_variance_initializer": {"class_name": "Ones", "config": {}}, "beta_initializer": {"class_name": "Zeros", "config": {}}, "scale": true, "axis": -1, "gamma_constraint": null, "gamma_regularizer": null, "beta_regularizer": null, "momentum": 0.99, "center": true}, "inbound_nodes": [[["conv2d_28", 0, 0, {}]]], "name": "batch_normalization_41"}, {"class_name": "Activation", "config": {"activation": "relu6", "trainable": true, "name": "activation_28"}, "inbound_nodes": [[["batch_normalization_41", 0, 0, {}]]], "name": "activation_28"}, {"class_name": "DepthwiseConv2D", "config": {"use_bias": true, "trainable": true, "name": "depthwise_conv2d_14", "bias_regularizer": null, "bias_constraint": null, "activation": "linear", "depth_multiplier": 1, "depthwise_constraint": null, "data_format": "channels_last", "padding": "same", "strides": [2, 2], "dilation_rate": [1, 1], "depthwise_initializer": {"class_name": "VarianceScaling", "config": {"distribution": "uniform", "scale": 1.0, "seed": null, "mode": "fan_avg"}}, "bias_initializer": {"class_name": "Zeros", "config": {}}, "depthwise_regularizer": null, "activity_regularizer": null, "kernel_size": [3, 3]}, "inbound_nodes": [[["activation_28", 0, 0, {}]]], "name": "depthwise_conv2d_14"}, {"class_name": "BatchNormalization", "config": {"beta_constraint": null, "gamma_initializer": {"class_name": "Ones", "config": {}}, "moving_mean_initializer": {"class_name": "Zeros", "config": {}}, "name": "batch_normalization_42", "epsilon": 0.001, "trainable": true, "moving_variance_initializer": {"class_name": "Ones", "config": {}}, "beta_initializer": {"class_name": "Zeros", "config": {}}, "scale": true, "axis": -1, "gamma_constraint": null, "gamma_regularizer": null, "beta_regularizer": null, "momentum": 0.99, "center": true}, "inbound_nodes": [[["depthwise_conv2d_14", 0, 0, {}]]], "name": "batch_normalization_42"}, {"class_name": "Activation", "config": {"activation": "relu6", "trainable": true, "name": "activation_29"}, "inbound_nodes": [[["batch_normalization_42", 0, 0, {}]]], "name": "activation_29"}, {"class_name": "Conv2D", "config": {"kernel_constraint": null, "kernel_initializer": {"class_name": "VarianceScaling", "config": {"distribution": "uniform", "scale": 1.0, "seed": null, "mode": "fan_avg"}}, "name": "conv2d_29", "bias_regularizer": null, "bias_constraint": null, "activation": "linear", "trainable": true, "data_format": "channels_last", "padding": "same", "strides": [1, 1], "dilation_rate": [1, 1], "kernel_regularizer": null, "filters": 160, "bias_initializer": {"class_name": "Zeros", "config": {}}, "use_bias": true, "activity_regularizer": null, "kernel_size": [1, 1]}, "inbound_nodes": [[["activation_29", 0, 0, {}]]], "name": "conv2d_29"}, {"class_name": "BatchNormalization", "config": {"beta_constraint": null, "gamma_initializer": {"class_name": "Ones", "config": {}}, "moving_mean_initializer": {"class_name": "Zeros", "config": {}}, "name": "batch_normalization_43", "epsilon": 0.001, "trainable": true, "moving_variance_initializer": {"class_name": "Ones", "config": {}}, "beta_initializer": {"class_name": "Zeros", "config": {}}, "scale": true, "axis": -1, "gamma_constraint": null, "gamma_regularizer": null, "beta_regularizer": null, "momentum": 0.99, "center": true}, "inbound_nodes": [[["conv2d_29", 0, 0, {}]]], "name": "batch_normalization_43"}, {"class_name": "Conv2D", "config": {"kernel_constraint": null, "kernel_initializer": {"class_name": "VarianceScaling", "config": {"distribution": "uniform", "scale": 1.0, "seed": null, "mode": "fan_avg"}}, "name": "conv2d_30", "bias_regularizer": null, "bias_constraint": null, "activation": "linear", "trainable": true, "data_format": "channels_last", "padding": "same", "strides": [1, 1], "dilation_rate": [1, 1], "kernel_regularizer": null, "filters": 960, "bias_initializer": {"class_name": "Zeros", "config": {}}, "use_bias": true, "activity_regularizer": null, "kernel_size": [1, 1]}, "inbound_nodes": [[["batch_normalization_43", 0, 0, {}]]], "name": "conv2d_30"}, {"class_name": "BatchNormalization", "config": {"beta_constraint": null, "gamma_initializer": {"class_name": "Ones", "config": {}}, "moving_mean_initializer": {"class_name": "Zeros", "config": {}}, "name": "batch_normalization_44", "epsilon": 0.001, "trainable": true, "moving_variance_initializer": {"class_name": "Ones", "config": {}}, "beta_initializer": {"class_name": "Zeros", "config": {}}, "scale": true, "axis": -1, "gamma_constraint": null, "gamma_regularizer": null, "beta_regularizer": null, "momentum": 0.99, "center": true}, "inbound_nodes": [[["conv2d_30", 0, 0, {}]]], "name": "batch_normalization_44"}, {"class_name": "Activation", "config": {"activation": "relu6", "trainable": true, "name": "activation_30"}, "inbound_nodes": [[["batch_normalization_44", 0, 0, {}]]], "name": "activation_30"}, {"class_name": "DepthwiseConv2D", "config": {"use_bias": true, "trainable": true, "name": "depthwise_conv2d_15", "bias_regularizer": null, "bias_constraint": null, "activation": "linear", "depth_multiplier": 1, "depthwise_constraint": null, "data_format": "channels_last", "padding": "same", "strides": [1, 1], "dilation_rate": [1, 1], "depthwise_initializer": {"class_name": "VarianceScaling", "config": {"distribution": "uniform", "scale": 1.0, "seed": null, "mode": "fan_avg"}}, "bias_initializer": {"class_name": "Zeros", "config": {}}, "depthwise_regularizer": null, "activity_regularizer": null, "kernel_size": [3, 3]}, "inbound_nodes": [[["activation_30", 0, 0, {}]]], "name": "depthwise_conv2d_15"}, {"class_name": "BatchNormalization", "config": {"beta_constraint": null, "gamma_initializer": {"class_name": "Ones", "config": {}}, "moving_mean_initializer": {"class_name": "Zeros", "config": {}}, "name": "batch_normalization_45", "epsilon": 0.001, "trainable": true, "moving_variance_initializer": {"class_name": "Ones", "config": {}}, "beta_initializer": {"class_name": "Zeros", "config": {}}, "scale": true, "axis": -1, "gamma_constraint": null, "gamma_regularizer": null, "beta_regularizer": null, "momentum": 0.99, "center": true}, "inbound_nodes": [[["depthwise_conv2d_15", 0, 0, {}]]], "name": "batch_normalization_45"}, {"class_name": "Activation", "config": {"activation": "relu6", "trainable": true, "name": "activation_31"}, "inbound_nodes": [[["batch_normalization_45", 0, 0, {}]]], "name": "activation_31"}, {"class_name": "Conv2D", "config": {"kernel_constraint": null, "kernel_initializer": {"class_name": "VarianceScaling", "config": {"distribution": "uniform", "scale": 1.0, "seed": null, "mode": "fan_avg"}}, "name": "conv2d_31", "bias_regularizer": null, "bias_constraint": null, "activation": "linear", "trainable": true, "data_format": "channels_last", "padding": "same", "strides": [1, 1], "dilation_rate": [1, 1], "kernel_regularizer": null, "filters": 160, "bias_initializer": {"class_name": "Zeros", "config": {}}, "use_bias": true, "activity_regularizer": null, "kernel_size": [1, 1]}, "inbound_nodes": [[["activation_31", 0, 0, {}]]], "name": "conv2d_31"}, {"class_name": "BatchNormalization", "config": {"beta_constraint": null, "gamma_initializer": {"class_name": "Ones", "config": {}}, "moving_mean_initializer": {"class_name": "Zeros", "config": {}}, "name": "batch_normalization_46", "epsilon": 0.001, "trainable": true, "moving_variance_initializer": {"class_name": "Ones", "config": {}}, "beta_initializer": {"class_name": "Zeros", "config": {}}, "scale": true, "axis": -1, "gamma_constraint": null, "gamma_regularizer": null, "beta_regularizer": null, "momentum": 0.99, "center": true}, "inbound_nodes": [[["conv2d_31", 0, 0, {}]]], "name": "batch_normalization_46"}, {"class_name": "Add", "config": {"trainable": true, "name": "add_9"}, "inbound_nodes": [[["batch_normalization_46", 0, 0, {}], ["batch_normalization_43", 0, 0, {}]]], "name": "add_9"}, {"class_name": "Conv2D", "config": {"kernel_constraint": null, "kernel_initializer": {"class_name": "VarianceScaling", "config": {"distribution": "uniform", "scale": 1.0, "seed": null, "mode": "fan_avg"}}, "name": "conv2d_32", "bias_regularizer": null, "bias_constraint": null, "activation": "linear", "trainable": true, "data_format": "channels_last", "padding": "same", "strides": [1, 1], "dilation_rate": [1, 1], "kernel_regularizer": null, "filters": 960, "bias_initializer": {"class_name": "Zeros", "config": {}}, "use_bias": true, "activity_regularizer": null, "kernel_size": [1, 1]}, "inbound_nodes": [[["add_9", 0, 0, {}]]], "name": "conv2d_32"}, {"class_name": "BatchNormalization", "config": {"beta_constraint": null, "gamma_initializer": {"class_name": "Ones", "config": {}}, "moving_mean_initializer": {"class_name": "Zeros", "config": {}}, "name": "batch_normalization_47", "epsilon": 0.001, "trainable": true, "moving_variance_initializer": {"class_name": "Ones", "config": {}}, "beta_initializer": {"class_name": "Zeros", "config": {}}, "scale": true, "axis": -1, "gamma_constraint": null, "gamma_regularizer": null, "beta_regularizer": null, "momentum": 0.99, "center": true}, "inbound_nodes": [[["conv2d_32", 0, 0, {}]]], "name": "batch_normalization_47"}, {"class_name": "Activation", "config": {"activation": "relu6", "trainable": true, "name": "activation_32"}, "inbound_nodes": [[["batch_normalization_47", 0, 0, {}]]], "name": "activation_32"}, {"class_name": "DepthwiseConv2D", "config": {"use_bias": true, "trainable": true, "name": "depthwise_conv2d_16", "bias_regularizer": null, "bias_constraint": null, "activation": "linear", "depth_multiplier": 1, "depthwise_constraint": null, "data_format": "channels_last", "padding": "same", "strides": [1, 1], "dilation_rate": [1, 1], "depthwise_initializer": {"class_name": "VarianceScaling", "config": {"distribution": "uniform", "scale": 1.0, "seed": null, "mode": "fan_avg"}}, "bias_initializer": {"class_name": "Zeros", "config": {}}, "depthwise_regularizer": null, "activity_regularizer": null, "kernel_size": [3, 3]}, "inbound_nodes": [[["activation_32", 0, 0, {}]]], "name": "depthwise_conv2d_16"}, {"class_name": "BatchNormalization", "config": {"beta_constraint": null, "gamma_initializer": {"class_name": "Ones", "config": {}}, "moving_mean_initializer": {"class_name": "Zeros", "config": {}}, "name": "batch_normalization_48", "epsilon": 0.001, "trainable": true, "moving_variance_initializer": {"class_name": "Ones", "config": {}}, "beta_initializer": {"class_name": "Zeros", "config": {}}, "scale": true, "axis": -1, "gamma_constraint": null, "gamma_regularizer": null, "beta_regularizer": null, "momentum": 0.99, "center": true}, "inbound_nodes": [[["depthwise_conv2d_16", 0, 0, {}]]], "name": "batch_normalization_48"}, {"class_name": "Activation", "config": {"activation": "relu6", "trainable": true, "name": "activation_33"}, "inbound_nodes": [[["batch_normalization_48", 0, 0, {}]]], "name": "activation_33"}, {"class_name": "Conv2D", "config": {"kernel_constraint": null, "kernel_initializer": {"class_name": "VarianceScaling", "config": {"distribution": "uniform", "scale": 1.0, "seed": null, "mode": "fan_avg"}}, "name": "conv2d_33", "bias_regularizer": null, "bias_constraint": null, "activation": "linear", "trainable": true, "data_format": "channels_last", "padding": "same", "strides": [1, 1], "dilation_rate": [1, 1], "kernel_regularizer": null, "filters": 160, "bias_initializer": {"class_name": "Zeros", "config": {}}, "use_bias": true, "activity_regularizer": null, "kernel_size": [1, 1]}, "inbound_nodes": [[["activation_33", 0, 0, {}]]], "name": "conv2d_33"}, {"class_name": "BatchNormalization", "config": {"beta_constraint": null, "gamma_initializer": {"class_name": "Ones", "config": {}}, "moving_mean_initializer": {"class_name": "Zeros", "config": {}}, "name": "batch_normalization_49", "epsilon": 0.001, "trainable": true, "moving_variance_initializer": {"class_name": "Ones", "config": {}}, "beta_initializer": {"class_name": "Zeros", "config": {}}, "scale": true, "axis": -1, "gamma_constraint": null, "gamma_regularizer": null, "beta_regularizer": null, "momentum": 0.99, "center": true}, "inbound_nodes": [[["conv2d_33", 0, 0, {}]]], "name": "batch_normalization_49"}, {"class_name": "Add", "config": {"trainable": true, "name": "add_10"}, "inbound_nodes": [[["batch_normalization_49", 0, 0, {}], ["add_9", 0, 0, {}]]], "name": "add_10"}, {"class_name": "Conv2D", "config": {"kernel_constraint": null, "kernel_initializer": {"class_name": "VarianceScaling", "config": {"distribution": "uniform", "scale": 1.0, "seed": null, "mode": "fan_avg"}}, "name": "conv2d_34", "bias_regularizer": null, "bias_constraint": null, "activation": "linear", "trainable": true, "data_format": "channels_last", "padding": "same", "strides": [1, 1], "dilation_rate": [1, 1], "kernel_regularizer": null, "filters": 960, "bias_initializer": {"class_name": "Zeros", "config": {}}, "use_bias": true, "activity_regularizer": null, "kernel_size": [1, 1]}, "inbound_nodes": [[["add_10", 0, 0, {}]]], "name": "conv2d_34"}, {"class_name": "BatchNormalization", "config": {"beta_constraint": null, "gamma_initializer": {"class_name": "Ones", "config": {}}, "moving_mean_initializer": {"class_name": "Zeros", "config": {}}, "name": "batch_normalization_50", "epsilon": 0.001, "trainable": true, "moving_variance_initializer": {"class_name": "Ones", "config": {}}, "beta_initializer": {"class_name": "Zeros", "config": {}}, "scale": true, "axis": -1, "gamma_constraint": null, "gamma_regularizer": null, "beta_regularizer": null, "momentum": 0.99, "center": true}, "inbound_nodes": [[["conv2d_34", 0, 0, {}]]], "name": "batch_normalization_50"}, {"class_name": "Activation", "config": {"activation": "relu6", "trainable": true, "name": "activation_34"}, "inbound_nodes": [[["batch_normalization_50", 0, 0, {}]]], "name": "activation_34"}, {"class_name": "DepthwiseConv2D", "config": {"use_bias": true, "trainable": true, "name": "depthwise_conv2d_17", "bias_regularizer": null, "bias_constraint": null, "activation": "linear", "depth_multiplier": 1, "depthwise_constraint": null, "data_format": "channels_last", "padding": "same", "strides": [1, 1], "dilation_rate": [1, 1], "depthwise_initializer": {"class_name": "VarianceScaling", "config": {"distribution": "uniform", "scale": 1.0, "seed": null, "mode": "fan_avg"}}, "bias_initializer": {"class_name": "Zeros", "config": {}}, "depthwise_regularizer": null, "activity_regularizer": null, "kernel_size": [3, 3]}, "inbound_nodes": [[["activation_34", 0, 0, {}]]], "name": "depthwise_conv2d_17"}, {"class_name": "BatchNormalization", "config": {"beta_constraint": null, "gamma_initializer": {"class_name": "Ones", "config": {}}, "moving_mean_initializer": {"class_name": "Zeros", "config": {}}, "name": "batch_normalization_51", "epsilon": 0.001, "trainable": true, "moving_variance_initializer": {"class_name": "Ones", "config": {}}, "beta_initializer": {"class_name": "Zeros", "config": {}}, "scale": true, "axis": -1, "gamma_constraint": null, "gamma_regularizer": null, "beta_regularizer": null, "momentum": 0.99, "center": true}, "inbound_nodes": [[["depthwise_conv2d_17", 0, 0, {}]]], "name": "batch_normalization_51"}, {"class_name": "Activation", "config": {"activation": "relu6", "trainable": true, "name": "activation_35"}, "inbound_nodes": [[["batch_normalization_51", 0, 0, {}]]], "name": "activation_35"}, {"class_name": "Conv2D", "config": {"kernel_constraint": null, "kernel_initializer": {"class_name": "VarianceScaling", "config": {"distribution": "uniform", "scale": 1.0, "seed": null, "mode": "fan_avg"}}, "name": "conv2d_35", "bias_regularizer": null, "bias_constraint": null, "activation": "linear", "trainable": true, "data_format": "channels_last", "padding": "same", "strides": [1, 1], "dilation_rate": [1, 1], "kernel_regularizer": null, "filters": 320, "bias_initializer": {"class_name": "Zeros", "config": {}}, "use_bias": true, "activity_regularizer": null, "kernel_size": [1, 1]}, "inbound_nodes": [[["activation_35", 0, 0, {}]]], "name": "conv2d_35"}, {"class_name": "BatchNormalization", "config": {"beta_constraint": null, "gamma_initializer": {"class_name": "Ones", "config": {}}, "moving_mean_initializer": {"class_name": "Zeros", "config": {}}, "name": "batch_normalization_52", "epsilon": 0.001, "trainable": true, "moving_variance_initializer": {"class_name": "Ones", "config": {}}, "beta_initializer": {"class_name": "Zeros", "config": {}}, "scale": true, "axis": -1, "gamma_constraint": null, "gamma_regularizer": null, "beta_regularizer": null, "momentum": 0.99, "center": true}, "inbound_nodes": [[["conv2d_35", 0, 0, {}]]], "name": "batch_normalization_52"}, {"class_name": "Conv2D", "config": {"kernel_constraint": null, "kernel_initializer": {"class_name": "VarianceScaling", "config": {"distribution": "uniform", "scale": 1.0, "seed": null, "mode": "fan_avg"}}, "name": "conv2d_36", "bias_regularizer": null, "bias_constraint": null, "activation": "linear", "trainable": true, "data_format": "channels_last", "padding": "same", "strides": [1, 1], "dilation_rate": [1, 1], "kernel_regularizer": null, "filters": 1280, "bias_initializer": {"class_name": "Zeros", "config": {}}, "use_bias": true, "activity_regularizer": null, "kernel_size": [1, 1]}, "inbound_nodes": [[["batch_normalization_52", 0, 0, {}]]], "name": "conv2d_36"}, {"class_name": "BatchNormalization", "config": {"beta_constraint": null, "gamma_initializer": {"class_name": "Ones", "config": {}}, "moving_mean_initializer": {"class_name": "Zeros", "config": {}}, "name": "batch_normalization_53", "epsilon": 0.001, "trainable": true, "moving_variance_initializer": {"class_name": "Ones", "config": {}}, "beta_initializer": {"class_name": "Zeros", "config": {}}, "scale": true, "axis": -1, "gamma_constraint": null, "gamma_regularizer": null, "beta_regularizer": null, "momentum": 0.99, "center": true}, "inbound_nodes": [[["conv2d_36", 0, 0, {}]]], "name": "batch_normalization_53"}, {"class_name": "Activation", "config": {"activation": "relu6", "trainable": true, "name": "activation_36"}, "inbound_nodes": [[["batch_normalization_53", 0, 0, {}]]], "name": "activation_36"}, {"class_name": "GlobalAveragePooling2D", "config": {"trainable": true, "name": "global_average_pooling2d_1", "data_format": "channels_last"}, "inbound_nodes": [[["activation_36", 0, 0, {}]]], "name": "global_average_pooling2d_1"}, {"class_name": "Reshape", "config": {"target_shape": [1, 1, 1280], "trainable": true, "name": "reshape_1"}, "inbound_nodes": [[["global_average_pooling2d_1", 0, 0, {}]]], "name": "reshape_1"}, {"class_name": "Dropout", "config": {"rate": 0.3, "noise_shape": null, "trainable": true, "seed": null, "name": "Dropout"}, "inbound_nodes": [[["reshape_1", 0, 0, {}]]], "name": "Dropout"}, {"class_name": "Conv2D", "config": {"kernel_constraint": null, "kernel_initializer": {"class_name": "VarianceScaling", "config": {"distribution": "uniform", "scale": 1.0, "seed": null, "mode": "fan_avg"}}, "name": "conv2d_37", "bias_regularizer": null, "bias_constraint": null, "activation": "linear", "trainable": true, "data_format": "channels_last", "padding": "same", "strides": [1, 1], "dilation_rate": [1, 1], "kernel_regularizer": null, "filters": 10, "bias_initializer": {"class_name": "Zeros", "config": {}}, "use_bias": true, "activity_regularizer": null, "kernel_size": [1, 1]}, "inbound_nodes": [[["Dropout", 0, 0, {}]]], "name": "conv2d_37"}, {"class_name": "Activation", "config": {"activation": "softmax", "trainable": true, "name": "softmax"}, "inbound_nodes": [[["conv2d_37", 0, 0, {}]]], "name": "softmax"}, {"class_name": "Reshape", "config": {"target_shape": [10], "trainable": true, "name": "reshape_2"}, "inbound_nodes": [[["softmax", 0, 0, {}]]], "name": "reshape_2"}], "input_layers": [["input_1", 0, 0]], "output_layers": [["reshape_2", 0, 0]], "name": "model_1"}, "backend": "tensorflow"}